Loading data
Loading data
Loading data
Number of tasks = 1
Splitting data with seed 0
==================== fold 0 ====================
Total size = 927 | train size = 742 | val size = 92 | test size = 93
Fitting scaler
Building model 0
MoleculeModel(
  (encoder): MPN(
    (encoder): MPNEncoder(
      (dropout_layer): Dropout(p=0.0, inplace=False)
      (act_func): ReLU()
      (W_i_atom): Linear(in_features=92, out_features=512, bias=False)
      (W_i_bond): Linear(in_features=104, out_features=512, bias=False)
      (W_h_atom): Linear(in_features=616, out_features=512, bias=False)
      (W_o): Linear(in_features=1024, out_features=512, bias=True)
      (gru): BatchGRU(
        (gru): GRU(512, 512, batch_first=True, bidirectional=True)
      )
      (lr): Linear(in_features=1536, out_features=512, bias=False)
    )
  )
  (ffn): Sequential(
    (0): Dropout(p=0.0, inplace=True)
    (1): Linear(in_features=512, out_features=512, bias=True)
    (2): ReLU()
    (3): Dropout(p=0.0, inplace=True)
    (4): Linear(in_features=512, out_features=512, bias=True)
    (5): ReLU()
    (6): Dropout(p=0.0, inplace=True)
    (7): Linear(in_features=512, out_features=512, bias=True)
    (8): ReLU()
    (9): Dropout(p=0.0, inplace=True)
    (10): Linear(in_features=512, out_features=1, bias=True)
  )
)
Number of parameters = 5,667,841
Epoch 0
Loading data
Number of tasks = 1
Splitting data with seed 0
==================== fold 0 ====================
Total size = 927 | train size = 742 | val size = 92 | test size = 93
Fitting scaler
Building model 0
MoleculeModel(
  (encoder): MPN(
    (encoder): MPNEncoder(
      (dropout_layer): Dropout(p=0.0, inplace=False)
      (act_func): ReLU()
      (W_i_atom): Linear(in_features=92, out_features=512, bias=False)
      (W_i_bond): Linear(in_features=104, out_features=512, bias=False)
      (W_h_atom): Linear(in_features=616, out_features=512, bias=False)
      (W_o): Linear(in_features=1024, out_features=512, bias=True)
      (gru): BatchGRU(
        (gru): GRU(512, 512, batch_first=True, bidirectional=True)
      )
      (lr): Linear(in_features=1536, out_features=512, bias=False)
    )
  )
  (ffn): Sequential(
    (0): Dropout(p=0.0, inplace=True)
    (1): Linear(in_features=512, out_features=512, bias=True)
    (2): ReLU()
    (3): Dropout(p=0.0, inplace=True)
    (4): Linear(in_features=512, out_features=512, bias=True)
    (5): ReLU()
    (6): Dropout(p=0.0, inplace=True)
    (7): Linear(in_features=512, out_features=512, bias=True)
    (8): ReLU()
    (9): Dropout(p=0.0, inplace=True)
    (10): Linear(in_features=512, out_features=1, bias=True)
  )
)
Number of parameters = 5,667,841
Epoch 0
Loading data
Number of tasks = 1
Splitting data with seed 0
==================== fold 0 ====================
Total size = 927 | train size = 742 | val size = 92 | test size = 93
Fitting scaler
Building model 0
MoleculeModel(
  (encoder): MPN(
    (encoder): MPNEncoder(
      (dropout_layer): Dropout(p=0.0, inplace=False)
      (act_func): ReLU()
      (W_i_atom): Linear(in_features=92, out_features=512, bias=False)
      (W_i_bond): Linear(in_features=104, out_features=512, bias=False)
      (W_h_atom): Linear(in_features=616, out_features=512, bias=False)
      (W_o): Linear(in_features=1024, out_features=512, bias=True)
      (gru): BatchGRU(
        (gru): GRU(512, 512, batch_first=True, bidirectional=True)
      )
      (lr): Linear(in_features=1536, out_features=512, bias=False)
    )
  )
  (ffn): Sequential(
    (0): Dropout(p=0.0, inplace=True)
    (1): Linear(in_features=512, out_features=512, bias=True)
    (2): ReLU()
    (3): Dropout(p=0.0, inplace=True)
    (4): Linear(in_features=512, out_features=512, bias=True)
    (5): ReLU()
    (6): Dropout(p=0.0, inplace=True)
    (7): Linear(in_features=512, out_features=512, bias=True)
    (8): ReLU()
    (9): Dropout(p=0.0, inplace=True)
    (10): Linear(in_features=512, out_features=1, bias=True)
  )
)
Number of parameters = 5,667,841
Epoch 0
Loading data
Number of tasks = 1
Splitting data with seed 0
==================== fold 0 ====================
Total size = 927 | train size = 742 | val size = 92 | test size = 93
Fitting scaler
Building model 0
MoleculeModel(
  (encoder): MPN(
    (encoder): MPNEncoder(
      (dropout_layer): Dropout(p=0.0, inplace=False)
      (act_func): ReLU()
      (W_i_atom): Linear(in_features=92, out_features=512, bias=False)
      (W_i_bond): Linear(in_features=104, out_features=512, bias=False)
      (W_h_atom): Linear(in_features=616, out_features=512, bias=False)
      (W_o): Linear(in_features=1024, out_features=512, bias=True)
      (gru): BatchGRU(
        (gru): GRU(512, 512, batch_first=True, bidirectional=True)
      )
      (lr): Linear(in_features=1536, out_features=512, bias=False)
    )
  )
  (ffn): Sequential(
    (0): Dropout(p=0.0, inplace=True)
    (1): Linear(in_features=512, out_features=512, bias=True)
    (2): ReLU()
    (3): Dropout(p=0.0, inplace=True)
    (4): Linear(in_features=512, out_features=512, bias=True)
    (5): ReLU()
    (6): Dropout(p=0.0, inplace=True)
    (7): Linear(in_features=512, out_features=512, bias=True)
    (8): ReLU()
    (9): Dropout(p=0.0, inplace=True)
    (10): Linear(in_features=512, out_features=1, bias=True)
  )
)
Number of parameters = 5,667,841
Moving model to cuda
Epoch 0
Loading data
Number of tasks = 1
Splitting data with seed 0
==================== fold 0 ====================
Total size = 927 | train size = 742 | val size = 92 | test size = 93
Fitting scaler
Building model 0
MoleculeModel(
  (encoder): MPN(
    (encoder): MPNEncoder(
      (dropout_layer): Dropout(p=0.0, inplace=False)
      (act_func): ReLU()
      (W_i_atom): Linear(in_features=92, out_features=512, bias=False)
      (W_i_bond): Linear(in_features=104, out_features=512, bias=False)
      (W_h_atom): Linear(in_features=616, out_features=512, bias=False)
      (W_o): Linear(in_features=1024, out_features=512, bias=True)
      (gru): BatchGRU(
        (gru): GRU(512, 512, batch_first=True, bidirectional=True)
      )
      (lr): Linear(in_features=1536, out_features=512, bias=False)
    )
  )
  (ffn): Sequential(
    (0): Dropout(p=0.0, inplace=True)
    (1): Linear(in_features=512, out_features=512, bias=True)
    (2): ReLU()
    (3): Dropout(p=0.0, inplace=True)
    (4): Linear(in_features=512, out_features=512, bias=True)
    (5): ReLU()
    (6): Dropout(p=0.0, inplace=True)
    (7): Linear(in_features=512, out_features=512, bias=True)
    (8): ReLU()
    (9): Dropout(p=0.0, inplace=True)
    (10): Linear(in_features=512, out_features=1, bias=True)
  )
)
Number of parameters = 5,667,841
Moving model to cuda
Epoch 0
Validation mae = 7.856414
Validation band_gap mae = 7.856414
Epoch 1
Validation mae = 7.535098
Validation band_gap mae = 7.535098
Epoch 2
Validation mae = 5.438952
Validation band_gap mae = 5.438952
Epoch 3
Validation mae = 7.730510
Validation band_gap mae = 7.730510
Epoch 4
Validation mae = 6.269136
…
Validation band_gap mae = 3.366152
Epoch 99
Validation mae = 3.307517
Validation band_gap mae = 3.307517
Model 0 best validation mae = 7.985044 on epoch 5
Moving model to cuda
Model 0 test mae = 6.086070
Model 0 test band_gap mae = 6.086070
Ensemble test mae = 6.086070
Ensemble test band_gap mae = 6.086070
==================== fold 1 ====================
Total size = 927 | train size = 742 | val size = 92 | test size = 93
Fitting scaler
Building model 0
MoleculeModel(
  (encoder): MPN(
    (encoder): MPNEncoder(
      (dropout_layer): Dropout(p=0.0, inplace=False)
      (act_func): ReLU()
      (W_i_atom): Linear(in_features=92, out_features=512, bias=False)
      (W_i_bond): Linear(in_features=104, out_features=512, bias=False)
      (W_h_atom): Linear(in_features=616, out_features=512, bias=False)
      (W_o): Linear(in_features=1024, out_features=512, bias=True)
      (gru): BatchGRU(
        (gru): GRU(512, 512, batch_first=True, bidirectional=True)
      )
      (lr): Linear(in_features=1536, out_features=512, bias=False)
    )
  )
  (ffn): Sequential(
    (0): Dropout(p=0.0, inplace=True)
    (1): Linear(in_features=512, out_features=512, bias=True)
    (2): ReLU()
    (3): Dropout(p=0.0, inplace=True)
    (4): Linear(in_features=512, out_features=512, bias=True)
    (5): ReLU()
    (6): Dropout(p=0.0, inplace=True)
    (7): Linear(in_features=512, out_features=512, bias=True)
    (8): ReLU()
    (9): Dropout(p=0.0, inplace=True)
    (10): Linear(in_features=512, out_features=1, bias=True)
  )
)
Number of parameters = 5,667,841
Moving model to cuda
Epoch 0
Validation mae = 1.636513
Validation band_gap mae = 1.636513
Epoch 1
Validation mae = 2.169725
Validation band_gap mae = 2.169725
Epoch 2
Validation mae = 1.310940
Validation band_gap mae = 1.310940
Epoch 3
Validation mae = 3.102220
Validation band_gap mae = 3.102220
Epoch 4
Validation mae = 1.613407
…
Validation band_gap mae = 3.119659
Epoch 29
Validation mae = 3.141706
Validation band_gap mae = 3.141706
Epoch 30
Validation mae = 3.257021
Validation band_gap mae = 3.257021
Epoch 31
Validation mae = 3.223712
Validation band_gap mae = 3.223712
Epoch 32
Loading data
Number of tasks = 1
Splitting data with seed 0
==================== fold 0 ====================
Total size = 927 | train size = 742 | val size = 92 | test size = 93
Fitting scaler
Building model 0
MoleculeModel(
  (encoder): MPN(
    (encoder): MPNEncoder(
      (dropout_layer): Dropout(p=0.0, inplace=False)
      (act_func): ReLU()
      (W_i_atom): Linear(in_features=92, out_features=512, bias=False)
      (W_i_bond): Linear(in_features=104, out_features=512, bias=False)
      (W_h_atom): Linear(in_features=616, out_features=512, bias=False)
      (W_o): Linear(in_features=1024, out_features=512, bias=True)
      (gru): BatchGRU(
        (gru): GRU(512, 512, batch_first=True, bidirectional=True)
      )
      (lr): Linear(in_features=1536, out_features=512, bias=False)
    )
  )
  (ffn): Sequential(
    (0): Dropout(p=0.0, inplace=True)
    (1): Linear(in_features=512, out_features=512, bias=True)
    (2): ReLU()
    (3): Dropout(p=0.0, inplace=True)
    (4): Linear(in_features=512, out_features=512, bias=True)
    (5): ReLU()
    (6): Dropout(p=0.0, inplace=True)
    (7): Linear(in_features=512, out_features=512, bias=True)
    (8): ReLU()
    (9): Dropout(p=0.0, inplace=True)
    (10): Linear(in_features=512, out_features=1, bias=True)
  )
)
Number of parameters = 5,667,841
Epoch 0
Loading data
Number of tasks = 1
Splitting data with seed 0
==================== fold 0 ====================
Total size = 927 | train size = 742 | val size = 92 | test size = 93
Fitting scaler
Building model 0
MoleculeModel(
  (encoder): MPN(
    (encoder): MPNEncoder(
      (dropout_layer): Dropout(p=0.0, inplace=False)
      (act_func): ReLU()
      (W_i_atom): Linear(in_features=92, out_features=512, bias=False)
      (W_i_bond): Linear(in_features=104, out_features=512, bias=False)
      (W_h_atom): Linear(in_features=616, out_features=512, bias=False)
      (W_o): Linear(in_features=1024, out_features=512, bias=True)
      (gru): BatchGRU(
        (gru): GRU(512, 512, batch_first=True, bidirectional=True)
      )
      (lr): Linear(in_features=1536, out_features=512, bias=False)
    )
  )
  (ffn): Sequential(
    (0): Dropout(p=0.0, inplace=True)
    (1): Linear(in_features=512, out_features=512, bias=True)
    (2): ReLU()
    (3): Dropout(p=0.0, inplace=True)
    (4): Linear(in_features=512, out_features=512, bias=True)
    (5): ReLU()
    (6): Dropout(p=0.0, inplace=True)
    (7): Linear(in_features=512, out_features=512, bias=True)
    (8): ReLU()
    (9): Dropout(p=0.0, inplace=True)
    (10): Linear(in_features=512, out_features=1, bias=True)
  )
)
Number of parameters = 5,667,841
Epoch 0
Loading data
Number of tasks = 1
Splitting data with seed 0
==================== fold 0 ====================
Total size = 927 | train size = 742 | val size = 92 | test size = 93
Fitting scaler
Building model 0
MoleculeModel(
  (encoder): MPN(
    (encoder): MPNEncoder(
      (dropout_layer): Dropout(p=0.0, inplace=False)
      (act_func): ReLU()
      (W_i_atom): Linear(in_features=92, out_features=512, bias=False)
      (W_i_bond): Linear(in_features=104, out_features=512, bias=False)
      (W_h_atom): Linear(in_features=616, out_features=512, bias=False)
      (W_o): Linear(in_features=1024, out_features=512, bias=True)
      (gru): BatchGRU(
        (gru): GRU(512, 512, batch_first=True, bidirectional=True)
      )
      (lr): Linear(in_features=1536, out_features=512, bias=False)
    )
  )
  (ffn): Sequential(
    (0): Dropout(p=0.0, inplace=True)
    (1): Linear(in_features=512, out_features=512, bias=True)
    (2): ReLU()
    (3): Dropout(p=0.0, inplace=True)
    (4): Linear(in_features=512, out_features=512, bias=True)
    (5): ReLU()
    (6): Dropout(p=0.0, inplace=True)
    (7): Linear(in_features=512, out_features=512, bias=True)
    (8): ReLU()
    (9): Dropout(p=0.0, inplace=True)
    (10): Linear(in_features=512, out_features=1, bias=True)
  )
)
Number of parameters = 5,667,841
Epoch 0
Loading data
Number of tasks = 1
Splitting data with seed 0
==================== fold 0 ====================
Total size = 927 | train size = 742 | val size = 92 | test size = 93
Fitting scaler
Building model 0
MoleculeModel(
  (encoder): MPN(
    (encoder): MPNEncoder(
      (dropout_layer): Dropout(p=0.0, inplace=False)
      (act_func): ReLU()
      (W_i_atom): Linear(in_features=92, out_features=512, bias=False)
      (W_i_bond): Linear(in_features=104, out_features=512, bias=False)
      (W_h_atom): Linear(in_features=616, out_features=512, bias=False)
      (W_o): Linear(in_features=1024, out_features=512, bias=True)
      (gru): BatchGRU(
        (gru): GRU(512, 512, batch_first=True, bidirectional=True)
      )
      (lr): Linear(in_features=1536, out_features=512, bias=False)
    )
  )
  (ffn): Sequential(
    (0): Dropout(p=0.0, inplace=True)
    (1): Linear(in_features=512, out_features=512, bias=True)
    (2): ReLU()
    (3): Dropout(p=0.0, inplace=True)
    (4): Linear(in_features=512, out_features=512, bias=True)
    (5): ReLU()
    (6): Dropout(p=0.0, inplace=True)
    (7): Linear(in_features=512, out_features=512, bias=True)
    (8): ReLU()
    (9): Dropout(p=0.0, inplace=True)
    (10): Linear(in_features=512, out_features=1, bias=True)
  )
)
Number of parameters = 5,667,841
Epoch 0
Loading data
Number of tasks = 1
Splitting data with seed 0
==================== fold 0 ====================
Loading data
Number of tasks = 1
Splitting data with seed 0
==================== fold 0 ====================
Total size = 927 | train size = 742 | val size = 92 | test size = 93
Fitting scaler
Building model 0
MoleculeModel(
  (encoder): MPN(
    (encoder): MPNEncoder(
      (dropout_layer): Dropout(p=0.0, inplace=False)
      (act_func): ReLU()
      (W_i_atom): Linear(in_features=92, out_features=512, bias=False)
      (W_i_bond): Linear(in_features=104, out_features=512, bias=False)
      (W_h_atom): Linear(in_features=616, out_features=512, bias=False)
      (W_o): Linear(in_features=1024, out_features=512, bias=True)
      (gru): BatchGRU(
        (gru): GRU(512, 512, batch_first=True, bidirectional=True)
      )
      (lr): Linear(in_features=1536, out_features=512, bias=False)
    )
  )
  (ffn): Sequential(
    (0): Dropout(p=0.0, inplace=True)
    (1): Linear(in_features=512, out_features=512, bias=True)
    (2): ReLU()
    (3): Dropout(p=0.0, inplace=True)
    (4): Linear(in_features=512, out_features=512, bias=True)
    (5): ReLU()
    (6): Dropout(p=0.0, inplace=True)
    (7): Linear(in_features=512, out_features=512, bias=True)
    (8): ReLU()
    (9): Dropout(p=0.0, inplace=True)
    (10): Linear(in_features=512, out_features=1, bias=True)
  )
)
Number of parameters = 5,667,841
Epoch 0
Loading data
Number of tasks = 1
Splitting data with seed 0
==================== fold 0 ====================
Total size = 927 | train size = 742 | val size = 92 | test size = 93
Fitting scaler
Building model 0
MoleculeModel(
  (encoder): MPN(
    (encoder): MPNEncoder(
      (dropout_layer): Dropout(p=0.0, inplace=False)
      (act_func): ReLU()
      (W_i_atom): Linear(in_features=92, out_features=512, bias=False)
      (W_i_bond): Linear(in_features=104, out_features=512, bias=False)
      (W_h_atom): Linear(in_features=616, out_features=512, bias=False)
      (W_o): Linear(in_features=1024, out_features=512, bias=True)
      (gru): BatchGRU(
        (gru): GRU(512, 512, batch_first=True, bidirectional=True)
      )
      (lr): Linear(in_features=1536, out_features=512, bias=False)
    )
  )
  (ffn): Sequential(
    (0): Dropout(p=0.0, inplace=True)
    (1): Linear(in_features=512, out_features=512, bias=True)
    (2): ReLU()
    (3): Dropout(p=0.0, inplace=True)
    (4): Linear(in_features=512, out_features=512, bias=True)
    (5): ReLU()
    (6): Dropout(p=0.0, inplace=True)
    (7): Linear(in_features=512, out_features=512, bias=True)
    (8): ReLU()
    (9): Dropout(p=0.0, inplace=True)
    (10): Linear(in_features=512, out_features=1, bias=True)
  )
)
Number of parameters = 5,667,841
Moving model to cuda
Epoch 0
Validation mae = 6.595015
Validation band_gap mae = 6.595015
Epoch 1
Validation mae = 6.013953
Validation band_gap mae = 6.013953
Epoch 2
Validation mae = 4.475356
Validation band_gap mae = 4.475356
Epoch 3
Validation mae = 9.540726
Validation band_gap mae = 9.540726
Epoch 4
Validation mae = 6.346656
…
Fold 9 ==> valid mae = 0.926695 test mae = 0.708071
Fold 9 ==> valid band_gap mae = 0.926695test band_gap mae = 0.708071
Overall valid mae = 0.994657 +/- 0.207614
Overall test mae = 0.839192 +/- 0.262594
Overall test band_gap mae = 0.839192 +/- 0.262594
Loading data
Number of tasks = 1
Splitting data with seed 0
==================== fold 0 ====================
Total size = 944 | train size = 755 | val size = 94 | test size = 95
Fitting scaler
Building model 0
MoleculeModel(
  (encoder): MPN(
    (encoder): MPNEncoder(
      (dropout_layer): Dropout(p=0.0, inplace=False)
      (act_func): ReLU()
      (W_i_atom): Linear(in_features=92, out_features=512, bias=False)
      (W_i_bond): Linear(in_features=104, out_features=512, bias=False)
      (W_h_atom): Linear(in_features=616, out_features=512, bias=False)
      (W_o): Linear(in_features=1024, out_features=512, bias=True)
      (gru): BatchGRU(
        (gru): GRU(512, 512, batch_first=True, bidirectional=True)
      )
      (lr): Linear(in_features=1536, out_features=512, bias=False)
    )
  )
  (ffn): Sequential(
    (0): Dropout(p=0.0, inplace=True)
    (1): Linear(in_features=512, out_features=512, bias=True)
    (2): ReLU()
    (3): Dropout(p=0.0, inplace=True)
    (4): Linear(in_features=512, out_features=512, bias=True)
    (5): ReLU()
    (6): Dropout(p=0.0, inplace=True)
    (7): Linear(in_features=512, out_features=512, bias=True)
    (8): ReLU()
    (9): Dropout(p=0.0, inplace=True)
    (10): Linear(in_features=512, out_features=1, bias=True)
  )
)
Number of parameters = 5,667,841
Moving model to cuda
Epoch 0
Loading data
Number of tasks = 1
Splitting data with seed 0
==================== fold 0 ====================
Total size = 944 | train size = 755 | val size = 94 | test size = 95
Fitting scaler
Building model 0
MoleculeModel(
  (encoder): MPN(
    (encoder): MPNEncoder(
      (dropout_layer): Dropout(p=0.0, inplace=False)
      (act_func): ReLU()
      (W_i_atom): Linear(in_features=46, out_features=512, bias=False)
      (W_i_bond): Linear(in_features=104, out_features=512, bias=False)
      (W_h_atom): Linear(in_features=616, out_features=512, bias=False)
      (W_o): Linear(in_features=1024, out_features=512, bias=True)
      (gru): BatchGRU(
        (gru): GRU(512, 512, batch_first=True, bidirectional=True)
      )
      (lr): Linear(in_features=1536, out_features=512, bias=False)
    )
  )
  (ffn): Sequential(
    (0): Dropout(p=0.0, inplace=True)
    (1): Linear(in_features=512, out_features=512, bias=True)
    (2): ReLU()
    (3): Dropout(p=0.0, inplace=True)
    (4): Linear(in_features=512, out_features=512, bias=True)
    (5): ReLU()
    (6): Dropout(p=0.0, inplace=True)
    (7): Linear(in_features=512, out_features=512, bias=True)
    (8): ReLU()
    (9): Dropout(p=0.0, inplace=True)
    (10): Linear(in_features=512, out_features=1, bias=True)
  )
)
Number of parameters = 5,644,289
Moving model to cuda
Epoch 0
Validation mae = 1.424460
Validation band_gap mae = 1.424460
Epoch 1
Validation mae = 1.248621
Validation band_gap mae = 1.248621
Epoch 2
Validation mae = 1.227091
Validation band_gap mae = 1.227091
Epoch 3
Validation mae = 1.539843
Validation band_gap mae = 1.539843
Epoch 4
Validation mae = 1.299467
…
Validation band_gap mae = 1.007233
Epoch 99
Validation mae = 1.026262
Validation band_gap mae = 1.026262
Model 0 best validation mae = 1.539843 on epoch 3
Moving model to cuda
Model 0 test mae = 1.528940
Model 0 test band_gap mae = 1.528940
Ensemble test mae = 1.528940
Ensemble test band_gap mae = 1.528940
==================== fold 1 ====================
Total size = 944 | train size = 755 | val size = 94 | test size = 95
Fitting scaler
Building model 0
MoleculeModel(
  (encoder): MPN(
    (encoder): MPNEncoder(
      (dropout_layer): Dropout(p=0.0, inplace=False)
      (act_func): ReLU()
      (W_i_atom): Linear(in_features=46, out_features=512, bias=False)
      (W_i_bond): Linear(in_features=104, out_features=512, bias=False)
      (W_h_atom): Linear(in_features=616, out_features=512, bias=False)
      (W_o): Linear(in_features=1024, out_features=512, bias=True)
      (gru): BatchGRU(
        (gru): GRU(512, 512, batch_first=True, bidirectional=True)
      )
      (lr): Linear(in_features=1536, out_features=512, bias=False)
    )
  )
  (ffn): Sequential(
    (0): Dropout(p=0.0, inplace=True)
    (1): Linear(in_features=512, out_features=512, bias=True)
    (2): ReLU()
    (3): Dropout(p=0.0, inplace=True)
    (4): Linear(in_features=512, out_features=512, bias=True)
    (5): ReLU()
    (6): Dropout(p=0.0, inplace=True)
    (7): Linear(in_features=512, out_features=512, bias=True)
    (8): ReLU()
    (9): Dropout(p=0.0, inplace=True)
    (10): Linear(in_features=512, out_features=1, bias=True)
  )
)
Number of parameters = 5,644,289
Moving model to cuda
Epoch 0
Validation mae = 1.235649
Validation band_gap mae = 1.235649
Epoch 1
Validation mae = 1.250391
Validation band_gap mae = 1.250391
Epoch 2
Validation mae = 1.194714
Validation band_gap mae = 1.194714
Epoch 3
Validation mae = 1.179139
Validation band_gap mae = 1.179139
Epoch 4
Validation mae = 1.109232
…
Validation band_gap mae = 0.538907
Epoch 61
Validation mae = 0.611919
Validation band_gap mae = 0.611919
Epoch 62
Validation mae = 0.670909
Validation band_gap mae = 0.670909
Epoch 63
Validation mae = 0.784901
Validation band_gap mae = 0.784901
Epoch 64
Loading data
Number of tasks = 1
Splitting data with seed 1
==================== fold 0 ====================
Total size = 944 | train size = 825 | val size = 94 | test size = 25
Fitting scaler
None
Building model 0
MoleculeModel(
  (encoder): MPN(
    (encoder): MPNEncoder(
      (dropout_layer): Dropout(p=0.0, inplace=False)
      (act_func): ReLU()
      (W_i_atom): Linear(in_features=46, out_features=512, bias=False)
      (W_i_bond): Linear(in_features=104, out_features=512, bias=False)
      (W_h_atom): Linear(in_features=616, out_features=512, bias=False)
      (W_o): Linear(in_features=1024, out_features=512, bias=True)
      (gru): BatchGRU(
        (gru): GRU(512, 512, batch_first=True, bidirectional=True)
      )
      (lr): Linear(in_features=1536, out_features=512, bias=False)
    )
  )
  (ffn): Sequential(
    (0): Dropout(p=0.0, inplace=True)
    (1): Linear(in_features=512, out_features=512, bias=True)
    (2): ReLU()
    (3): Dropout(p=0.0, inplace=True)
    (4): Linear(in_features=512, out_features=512, bias=True)
    (5): ReLU()
    (6): Dropout(p=0.0, inplace=True)
    (7): Linear(in_features=512, out_features=512, bias=True)
    (8): ReLU()
    (9): Dropout(p=0.0, inplace=True)
    (10): Linear(in_features=512, out_features=1, bias=True)
  )
)
Number of parameters = 5,644,289
Moving model to cuda
Epoch 0
Validation mae = 7.062241
Validation band_gap mae = 7.062241
Epoch 1
Validation mae = 7.308744
Validation band_gap mae = 7.308744
Epoch 2
Validation mae = 7.435422
Validation band_gap mae = 7.435422
Epoch 3
Validation mae = 5.285308
Validation band_gap mae = 5.285308
Epoch 4
Loading data
Number of tasks = 1
Splitting data with seed 1
==================== fold 0 ====================
Total size = 944 | train size = 825 | val size = 94 | test size = 25
Fitting scaler
None
Building model 0
MoleculeModel(
  (encoder): MPN(
    (encoder): MPNEncoder(
      (dropout_layer): Dropout(p=0.0, inplace=False)
      (act_func): ReLU()
      (W_i_atom): Linear(in_features=46, out_features=512, bias=False)
      (W_i_bond): Linear(in_features=104, out_features=512, bias=False)
      (W_h_atom): Linear(in_features=616, out_features=512, bias=False)
      (W_o): Linear(in_features=1024, out_features=512, bias=True)
      (gru): BatchGRU(
        (gru): GRU(512, 512, batch_first=True, bidirectional=True)
      )
      (lr): Linear(in_features=1536, out_features=512, bias=False)
    )
  )
  (ffn): Sequential(
    (0): Dropout(p=0.0, inplace=True)
    (1): Linear(in_features=512, out_features=512, bias=True)
    (2): ReLU()
    (3): Dropout(p=0.0, inplace=True)
    (4): Linear(in_features=512, out_features=512, bias=True)
    (5): ReLU()
    (6): Dropout(p=0.0, inplace=True)
    (7): Linear(in_features=512, out_features=512, bias=True)
    (8): ReLU()
    (9): Dropout(p=0.0, inplace=True)
    (10): Linear(in_features=512, out_features=1, bias=True)
  )
)
Number of parameters = 5,644,289
Moving model to cuda
Epoch 0
Validation mae = 7.383855
Validation band_gap mae = 7.383855
Epoch 1
Validation mae = 6.465581
Validation band_gap mae = 6.465581
Epoch 2
Validation mae = 4.696947
Validation band_gap mae = 4.696947
Epoch 3
Validation mae = 7.391243
Validation band_gap mae = 7.391243
Epoch 4
Validation mae = 4.158136
…
